models/ic50_model.pt (torch, 63270 bytes, 5 tensors)

weight f4 [128, 49]
0	0xbe3987a2	-0.18118146
1	0xbd48d1e9	-0.04902831
2	0x3ef53195	0.4788939
3	0xbd4ecc97	-0.05048808
4	0x3d3c78c4	0.04601361
5	0x3dd4fdf8	0.10400003
6	0xbc0956cd	-0.008382511
7	0xbe05882a	-0.13040224
8	0x3e930ddf	0.2872152
9	0xbd9b8ea8	-0.07595569
10	0x3b8c1d41	0.0042759483
11	0x3cf0b848	0.029384747
12	0x3daf2a05	0.085529365
13	0xbd411072	-0.047134824
14	0x3e24b102	0.16083148
15	0x3e3a1374	0.18171483
16	0x3d142cb4	0.036175445
17	0x3d392f3c	0.04521106
18	0x3db7ec22	0.08980586
19	0xbd898016	-0.067138836
20	0xbd5c9d95	-0.05386122
21	0xbcfc2c5c	-0.030782871
22	0x3dff456c	0.12464413
23	0xbd287b73	-0.041133355
24	0xbe63eeac	-0.22259015
25	0x3d7459e6	0.059656046
26	0xbcd55c15	-0.026044885
27	0xbd419bee	-0.047267847
28	0x3dcdc74d	0.10047779
29	0xbd9591ad	-0.07303176
30	0xbbb7ef6c	-0.005613258
31	0xbe31926f	-0.17341016
32	0x3b87187e	0.0041227927
33	0x3de25278	0.11050886
34	0xbdec6542	-0.11542751
35	0xbde10e0f	-0.109890096
36	0x3db99ade	0.09062742
37	0x3dbd2ad8	0.092366874
38	0xbd99e8fe	-0.07515143
39	0x3dab4ae7	0.08363896
40	0xbd6a69cb	-0.0572298
41	0x3e1ff076	0.15619072
42	0xbd844070	-0.06457603
43	0x3d90b536	0.07065813
44	0xbdcb265c	-0.09919426
45	0x3e154688	0.14577687
46	0x3e2b44d0	0.16725469
47	0x3d3759ff	0.04476356
48	0x3e26c147	0.16284667
49	0xbcaa9a78	-0.02082561
50	0xbd79306d	-0.060837198
51	0xbf0dde2d	-0.5541714
52	0xbe20b586	-0.15694246
53	0xbd32aa88	-0.043619663
54	0x3def1027	0.11673003
55	0xbd4ac925	-0.049508233
56	0xbd9c2eb9	-0.07626099
57	0x3e89fc8d	0.26950493
58	0xbe511ede	-0.20421931
59	0xbe96cbc8	-0.29452348
60	0xbd8b4c82	-0.06801702
61	0x3dac27d0	0.08406031
62	0xbdc994e3	-0.09842851
63	0xbd141dd6	-0.036161266
64	0xbdfd50e8	-0.12368947
65	0xbd19e40e	-0.037571006
66	0x3e2681dd	0.16260476
67	0x3d87d26c	0.06631932
68	0xbd80a49a	-0.06281395
69	0xbc07631a	-0.008263374
70	0x3d947bb9	0.07250161
71	0xbe04906f	-0.12945722
72	0x3be1109c	0.006868435
73	0xbe18dc3c	-0.14927763
74	0xbdec930b	-0.11551484
75	0xbe196cac	-0.14982861
76	0xbe21fb6d	-0.15818568
77	0xbe7405dc	-0.2383036
78	0xbe0da95c	-0.13834137
79	0xbe19e18a	-0.15027443
80	0xbcadad6b	-0.021200856
81	0xbe69b076	-0.22821221
82	0xbdf9326c	-0.1216782
83	0x3d886e63	0.066616796
84	0xbd741fb8	-0.05960056
85	0xbe1b867e	-0.15188023
86	0x3c3c90b4	0.011509109
87	0xbbcd23f8	-0.0062603913
88	0xbd6f3a2a	-0.05840508
89	0x3c371363	0.011174056
90	0x3d377b1e	0.044795148
91	0x3d21e4eb	0.039524954
92	0xbdfbfa7b	-0.12303635
93	0xbe3fa256	-0.1871427
94	0x3e856ebe	0.26061052
95	0xbcbe4496	-0.023226064
96	0x3e62f9d1	0.2216561
97	0xbd0809cb	-0.033212464
98	0xbc91cfef	-0.017799346
99	0xbe737121	-0.23773624
100	0x3fc2dd07	1.5223702
101	0x3f2dc4dd	0.67878515
102	0x3f123f03	0.571274
103	0x3da2e086	0.07952981
104	0x3f263160	0.6491909
105	0x3f87eca1	1.0619088
106	0x3f33f38f	0.70293516
107	0x3ee8e4f7	0.45487186
108	0x3f850e39	1.0394965
109	0x3f2720bb	0.6528432
110	0x3f6f5c9a	0.93500674
111	0x3eef4880	0.46735
112	0x3ed1777d	0.40911475
113	0x3f0543b1	0.52056414
114	0x3eeec5d8	0.46635318
115	0xbda3de2f	-0.080013625
116	0x3ef27629	0.47355774
117	0x3c4fa35e	0.012673227
118	0x3f7302ff	0.94926447
119	0x3eb3c485	0.3511087
120	0x3ea21136	0.31653756
121	0x3f0cd66a	0.5501467
122	0xbe81d322	-0.25356394
123	0x3eeb9239	0.46009997
124	0x3f18259a	0.59432375
125	0x3ec81dcf	0.39085242
126	0x3ead4653	0.33842716
127	0x3ed14b50	0.4087777
128	0x3f465395	0.77471286
129	0x3eb1b070	0.34704924
130	0x3f0ebb2d	0.5575436
131	0x3f2ee34e	0.6831559
132	0x3f2437f6	0.6414789
133	0x3e93f160	0.28895092
134	0x3f2dfab4	0.6796067
135	0x3e9cae63	0.30601797
136	0x3e83ceb6	0.25743645
137	0x3e0768c4	0.13223559
138	0x3ee28ff8	0.44250464
139	0x3f820afe	1.0159605
140	0x3f0b37fb	0.54382294
141	0x3f0d54bb	0.55207413
142	0x3edc53a9	0.43032578
143	0x3e7d0018	0.24707067
144	0x3efbf98f	0.49213836
145	0x3e9dc282	0.3081246
146	0x3f0196b0	0.50620556
147	0xbd3a9af3	-0.045557927
148	0xbc0f25e4	-0.008737061
149	0xbec2c909	-0.38044003
150	0xbf092ced	-0.53584176
151	0xbd6dfd1c	-0.058102712
152	0xbebbb944	-0.36664784
153	0x3d43cee9	0.047804747
154	0xbdd86d6c	-0.105677456
155	0xbe731c71	-0.23741318
156	0xbec02124	-0.37525284
157	0xbdc488e1	-0.0959642
158	0xbe9a26d1	-0.3010774
159	0x3c905db7	0.017622812
160	0xbea598b6	-0.32343072
161	0x3c8e6726	0.01738317
162	0xbe8100cb	-0.25195917
163	0xbe71a4f1	-0.23598076
164	0xb8cc124a	-9.7308846e-05
165	0xbe77575a	-0.24154416
166	0xbdbb66c1	-0.09150458
167	0xbe0af5dc	-0.1357035
168	0xbe06b177	-0.13153635
169	0xbdcc1622	-0.09965159
170	0xbe68840b	-0.2270662
171	0xbeabb715	-0.33538118
172	0xbd7364de	-0.059422366
173	0xbed18e93	-0.40929088
174	0xbd8a196c	-0.0674313
175	0xbe2a25af	-0.16615938
176	0xbdb08705	-0.08619503
177	0xbd982271	-0.07428444
178	0x3d812dd2	0.06307568
179	0xbde4c044	-0.11169484
180	0xbc8b8caf	-0.017034857
181	0x3d99fce6	0.0751894
182	0xbe7c6f08	-0.2465173
183	0xbc9d0e91	-0.019171985
184	0xbd84fa83	-0.06493094
185	0xbd0c9342	-0.034320123
186	0xbe0387d7	-0.12844788
187	0xbd222aa9	-0.039591465
188	0xbcb21631	-0.021739097
189	0x3cc6d7d9	0.024272846
190	0xbe94447c	-0.289585
191	0xbe1166af	-0.14199327
192	0x3db13b9a	0.08653946
193	0xbe30ea02	-0.17276767
194	0xbdf9aada	-0.121907905
195	0x3be4c263	0.0069811805
196	0xbdf53828	-0.119736016
197	0xbca5d963	-0.02024526
198	0x3f6ae414	0.9175427
199	0x3e0045c8	0.1252662
200	0x3df30615	0.118663944
201	0xbe7851e8	-0.24249995
202	0xbdf8579c	-0.12126085
203	0x3d188ac9	0.03724173
204	0xbe2c1406	-0.16804513
205	0x3c5269d1	0.012842611
206	0x3ce0aa63	0.027424997
207	0xbd034f11	-0.032057825
208	0x3eb1922c	0.34681833
209	0x3f0fa6b8	0.5611377
210	0x3e8b01bc	0.2714976
211	0x3e3a4282	0.18189433
212	0xbe8dbf71	-0.2768512
213	0x3d024eae	0.031813316
214	0xbcab16ba	-0.02088486
215	0xbd9a41ac	-0.07532057
216	0xbde4b456	-0.11167209
217	0xbda22bce	-0.07918511
218	0xbc921e5c	-0.017836742
219	0x3db73788	0.089461386
220	0x3cc0404b	0.023468157
221	0x3aeddd79	0.0018147669
222	0x3d2e642c	0.042576
223	0x3c86378a	0.016383905
224	0x3d8353a7	0.0641244
225	0x3d941f43	0.07232525
226	0xbd86186c	-0.06547627
227	0xbe533194	-0.20624381
228	0xbbdb70ba	-0.0066967877
229	0x3e0e0f8b	0.13873117
230	0xbe14eb7a	-0.14542952
231	0x3a5f3177	0.0008514146
232	0x3c6bfb2c	0.014403146
233	0xbd103e53	-0.035215687
234	0xbe1770cd	-0.14789124
235	0x3dbd3ae5	0.09239749
236	0xbcd3f459	-0.02587335
237	0x3ebfd510	0.3746724
238	0xbe03b8c1	-0.12863447
239	0xbe5b20ef	-0.21399282
240	0x3ebd153e	0.3693027
241	0xbda041cc	-0.0782505
242	0x3e60a171	0.21936585
243	0xbc7a9927	-0.015295303
244	0x3da019d5	0.07817427
245	0x3b3b9c6f	0.0028627177
246	0xbe79ecd1	-0.24406745
247	0xbfe006dc	-1.7502093
248	0xc034ad7f	-2.8230894
249	0xbe285f9e	-0.16442725
250	0x3d3eaa49	0.046549115
251	0x3e43049d	0.19044729
252	0x3ef4d493	0.4781843
253	0x3e2dc7a8	0.16970694
254	0x3ed24450	0.41067743
255	0x3f87b9ff	1.0603637

bias f4 [128]
0	0x3c085305	0.008320575
1	0xbdb13480	-0.08652592
2	0x3fd66548	1.6749659
3	0xbf09294f	-0.53578657
4	0x3e8abe10	0.2709813
5	0x3f5dafd6	0.8659643
6	0xbdc7bb0e	-0.09752475
7	0xbeb354cc	-0.35025632
8	0x3edfda0e	0.4372105
9	0x3f5db5f4	0.86605763
10	0x3f24de1e	0.64401424
11	0xbdfa47bc	-0.122207135
12	0x3e29c5cf	0.16579364
13	0xbdc98997	-0.09840696
14	0xbe0bc9ed	-0.13651247
15	0x3f1e94f7	0.6194605
16	0xbd2a053c	-0.0415089
17	0x3eb76138	0.3581636
18	0xbfc1f790	-1.5153675
19	0x3fdc9442	1.7232745
20	0xbe786646	-0.24257764
21	0x3d882bc7	0.06648975
22	0xbe917785	-0.284115
23	0x3ef83591	0.48478368
24	0xbf9a07d3	-1.2033638
25	0x3f7038fa	0.9383694
26	0x3e2d3878	0.16916072
27	0x3ee9b2d2	0.45644242
28	0x3be1078d	0.006867355
29	0x3ea1a3e5	0.31570354
30	0xbd8e31f3	-0.06943121
31	0x3ef948cd	0.48688355
32	0xbdd24743	-0.10267498
33	0xbe32e148	-0.1746875
34	0x3ec5d892	0.38641793
35	0xbd7a2c70	-0.061077535
36	0x3e9db206	0.30799884
37	0xbddbfb29	-0.107412644
38	0x3ef1812e	0.4716887
39	0x3d6cac2c	0.057781383
40	0xbf0d9aa4	-0.5531409
41	0x3e8b667f	0.27226636
42	0xbcdc644a	-0.02690329
43	0x3ef11308	0.47084832
44	0xc017fddd	-2.3748696
45	0xbe6550ff	-0.22394179
46	0x3f1032d1	0.5632754
47	0x3eb0f5cd	0.3456253
48	0x3e690a64	0.2275787
49	0xbd3eea0c	-0.046609923
50	0x3fdf13f4	1.7427964
51	0x40230ab7	2.547529
52	0xbb225b19	-0.0024773537
53	0xbe52dd8d	-0.20592327
54	0x3ff40071	1.9062635
55	0xc016c1f0	-2.355587
56	0xbe37f9db	-0.17966406
57	0xbe6a3423	-0.22871451
58	0xbece7c7f	-0.40329358
59	0x3cd2d181	0.025734665
60	0x3ee62358	0.4494884
61	0x3ea2f1b9	0.31825045
62	0x3b0884b3	0.0020831048
63	0x3ee86baf	0.45394656
64	0xbc9c4a93	-0.019078529
65	0xbdbf5dca	-0.09344061
66	0xbe241f7d	-0.16027637
67	0xbe3d74d5	-0.18501599
68	0xbdda4969	-0.10658533
69	0x3efc2213	0.49244747
70	0xbd817a43	-0.06322148
71	0xbf1a598f	-0.60292906
72	0xbeb441b4	-0.35206378
73	0xbeb237b2	-0.34808117
74	0x3f280e03	0.6564638
75	0xbe2e1c28	-0.17002928
76	0xbdf3d9cb	-0.11906775
77	0x3d92cf5f	0.07168459
78	0x3ed9854a	0.42484504
79	0xbd188e64	-0.03724517
80	0x3e95608f	0.2917523
81	0xbfbb743c	-1.4644847
82	0x3efa1281	0.48842242
83	0xbe240c08	-0.16020215
84	0x3f997dc1	1.1991502
85	0xbe21a5c9	-0.15785898
86	0x3fd3ebb8	1.6556311
87	0x3ec913e5	0.3927299
88	0xbc9bc4d3	-0.019014752
89	0x3e22cb7f	0.1589794
90	0xbe04190f	-0.12900184
91	0xbe91a17f	-0.28443524
92	0xc0058607	-2.0863054
93	0xbe3062e7	-0.17225228
94	0x3e69750b	0.22798555
95	0xbd40e966	-0.047097586
96	0x3f57cd1c	0.8429735
97	0xbd9c4cba	-0.07631822
98	0x3f4cde43	0.80026644
99	0x3e42cbb6	0.19023022
100	0x3d126b8c	0.035747096
101	0xbf833222	-1.0249674
102	0xbe43b9ee	-0.19113895
103	0x3fda25c6	1.7042778
104	0x3ee276e3	0.44231328
105	0xbde9ab4c	-0.114096254
106	0x3f326445	0.6968425
107	0x3f4c66f4	0.79844594
108	0x3db17da0	0.08666539
109	0xbdcd5df0	-0.10027683
110	0xbed6d845	-0.41961876
111	0x3ed696cd	0.41911927
112	0x3f282b5f	0.6569118
113	0x3e8705db	0.26371655
114	0x3f209245	0.6272319
115	0xbdca3454	-0.09873262
116	0xbee98683	-0.45610437
117	0x3f51c84f	0.8194627
118	0x3e4ccd51	0.20000197
119	0xbc65ebcd	-0.01403327
120	0xbf8bb489	-1.091447
121	0x3f404a6d	0.75113565
122	0xbdd27bc2	-0.10277511
123	0xbefec756	-0.49761456
124	0xbe8d53dd	-0.27603045
125	0xbd6df9e0	-0.058099627
126	0xbed7b390	-0.42129183
127	0x3f5716c2	0.840191

weight f4 [64, 128]
0	0xbd80eb7f	-0.06294917
1	0x3cdf5216	0.027260821
2	0xbe954940	-0.29157448
3	0x3c947967	0.018124295
4	0xbe7df6aa	-0.24801126
5	0x3dc8b4b5	0.09800092
6	0x3d9a078b	0.0752097
7	0x3ca45873	0.020061707
8	0xbe0edbb6	-0.13951
9	0xbc76474a	-0.015031645
10	0x3e30b0f1	0.17254998
11	0xbc9c0f50	-0.01905027
12	0xbc627c88	-0.013823636
13	0x3cad878a	0.021182794
14	0xba094680	-0.00052366406
15	0xbd89c063	-0.06726148
16	0xbda1cd72	-0.07900514
17	0xbdff4c5c	-0.12465736
18	0x3d8b6bd4	0.06807676
19	0xbeb2fa00	-0.3495636
20	0x3c660961	0.014040322
21	0xbd2ee37b	-0.04269741
22	0x3d896b31	0.06709898
23	0xbd1bed17	-0.038067903
24	0x3bd83df5	0.0065991827
25	0x3d1c3d29	0.038144264
26	0xbe027c90	-0.1274283
27	0xbdffc336	-0.124884054
28	0xbe273489	-0.16328634
29	0xbd8ec9d6	-0.06972091
30	0x3d11d29c	0.035601243
31	0xbe5e2323	-0.21693091
32	0x3cd3f0f1	0.025871726
33	0x3d96961a	0.07352848
34	0xbe01b729	-0.12667526
35	0xbe0e2081	-0.13879587
36	0xbdebc256	-0.11511676
37	0x3c8dce08	0.017310157
38	0xbdc7c5e0	-0.097545385
39	0xbe033e4e	-0.12816736
40	0x3d81d113	0.06338706
41	0x3dc6b481	0.09702397
42	0x3db11a3a	0.086475804
43	0xbd0f587a	-0.034996487
44	0x3cee0c08	0.029058471
45	0x3e637d69	0.22215809
46	0xbe81149e	-0.25211042
47	0xbd5a0227	-0.05322471
48	0xbc6fa6d2	-0.014627175
49	0x3d59c904	0.05317022
50	0xbea2484f	-0.31695792
51	0xbe1e46d1	-0.15456702
52	0x3d96ffd0	0.07373011
53	0xbdb69187	-0.08914476
54	0xbd364421	-0.044498567
55	0x3e2394bf	0.15974711
56	0xbe07401d	-0.13208051
57	0xbddc9bcc	-0.107719034
58	0x3c7ac40c	0.01530553
59	0xbd65e2bb	-0.05612443
60	0xbe10b25f	-0.14130543
61	0xbe12d60a	-0.14339462
62	0xbc149d57	-0.009070716
63	0xbe88ed5a	-0.26743585
64	0x3d7afcc8	0.061276227
65	0xbd89f2f2	-0.06735791
66	0x3d910fcf	0.070830934
67	0xbd9263a3	-0.071479104
68	0xbca8355d	-0.020533258
69	0x3db830d6	0.0899369
70	0xbcc333e6	-0.023828458
71	0xbd5d26c9	-0.053992067
72	0x3e61afd9	0.22039737
73	0xbda4fe89	-0.08056361
74	0xbd9c3701	-0.07627679
75	0xbdfd7b69	-0.12377054
76	0x3d5eabc6	0.054363035
77	0xbdb5ff48	-0.08886582
78	0xbdc0f356	-0.09421413
79	0xbd0b8b01	-0.03406811
80	0xbdaa2ac1	-0.08308936
81	0x3dfdd1fc	0.12393567
82	0xbe183aa7	-0.14866124
83	0x3ccca300	0.024980068
84	0x3a365b74	0.00069563766
85	0x3c6206e3	0.013795587
86	0xbdb6371c	-0.0889723
87	0x3c8b02b1	0.016969057
88	0x3d17bdd1	0.037046257
89	0x3db4a832	0.08821143
90	0xbbf4a97c	-0.007466493
91	0xbd31f8d4	-0.04345019
92	0x3db0cb85	0.08632568
93	0xbdae4207	-0.085086875
94	0x3d4bc591	0.04974896
95	0xbc1bb3e0	-0.009503335
96	0xbe171e52	-0.1475766
97	0xbd379abf	-0.04482531
98	0xbe2a6388	-0.1663953
99	0xbd194863	-0.03742255
100	0xbe0b15f0	-0.13582587
101	0x3d1ec613	0.038763117
102	0x3c68513a	0.014179522
103	0x3cf55848	0.029949322
104	0xbd5dc363	-0.054141413
105	0xbd4adac8	-0.049525052
106	0xbdf188e2	-0.117936864
107	0x3bf13779	0.007361349
108	0x3c8e3186	0.017357599
109	0xbdb1a7df	-0.08674597
110	0xbca01206	-0.019539844
111	0xbdbbfe88	-0.09179407
112	0x3e93fbfa	0.2890318
113	0x3da4bc34	0.080437094
114	0xb9ca30b7	-0.00038564738
115	0x3cdb1f6d	0.026748383
116	0x3e96ecc2	0.29477507
117	0xbe273d1b	-0.16331904
118	0x3c62f168	0.013851501
119	0xbda699ff	-0.08134841
120	0xbf8ceefb	-1.1010431
121	0xbe2b2660	-0.16713858
122	0xbd76497f	-0.060128685
123	0xbe311d5b	-0.17296354
124	0xbd93084c	-0.07179317
125	0xbb56299b	-0.0032678607
126	0xbcc98953	-0.024601614
127	0xbdbbbb83	-0.091666244
128	0xbd01946f	-0.031635698
129	0xbd019813	-0.03163917
130	0x3d018ba3	0.03162731
131	0xbc0ffb7e	-0.008787988
132	0x3e004540	0.12526417
133	0xbde8a127	-0.11358862
134	0xbd368910	-0.044564307
135	0x3d7ecd0c	0.062207267
136	0x3d85c084	0.0653086
137	0xbe584cee	-0.21123096
138	0xbdaca30f	-0.084295385
139	0xbc700f7d	-0.01465213
140	0x3d4f87c4	0.050666586
141	0x3dabe23e	0.08392762
142	0xbd4a285c	-0.049354896
143	0x3ca75a1d	0.020428712
144	0xbda5aa50	-0.08089125
145	0x3d9e4b71	0.07729233
146	0x3dd6610d	0.1046773
147	0xbe8f0f7e	-0.27941507
148	0xbdb7c407	-0.08972936
149	0x3d608c1a	0.05482111
150	0x3de44eb5	0.11147825
151	0xbdbd521b	-0.09244176
152	0xbb53d194	-0.0032320963
153	0xbeaea069	-0.34106758
154	0x3de02142	0.109438434
155	0xbe6c2b8c	-0.23063487
156	0x3d146bac	0.036235496
157	0xbb36f602	-0.0027917628
158	0x3ca3fe6e	0.020018782
159	0xbdd10b6b	-0.10207256
160	0xbdca1021	-0.098663576
161	0x3d5408da	0.051766254
162	0xbe6f3923	-0.2336164
163	0xbcf050d2	-0.029335413
164	0x3e292cd2	0.16521004
165	0x3d9ebfa2	0.07751395
166	0xbcaf3fb2	-0.021392677
167	0x3d762227	0.060091164
168	0x3df35781	0.118819244
169	0xbde764ee	-0.11298548
170	0x3d3d0fca	0.046157636
171	0x3d82112b	0.06350931
172	0x3de6383e	0.11241196
173	0xbe39355c	-0.18086761
174	0xbdae8a90	-0.085225224
175	0x3b98d0c0	0.004663557
176	0xbcfb9f9d	-0.030715758
177	0x3d3b37d7	0.04570755
178	0xbdeac077	-0.11462491
179	0xbf2d979e	-0.67809474
180	0x3cda0b35	0.026616672
181	0xbd8fdb5f	-0.070242636
182	0xbe9e7a9e	-0.30952924
183	0x3e146e4d	0.14495201
184	0x3c509f2c	0.012733262
185	0x3e1723ac	0.14759701
186	0xbd5766de	-0.052588336
187	0xbda8a08c	-0.08233747
188	0x3a9eafc0	0.0012106821
189	0x3c910c81	0.017706158
190	0x3dd03959	0.10167188
191	0xbe9b7227	-0.3036053
192	0xbd42ca76	-0.047556363
193	0xbc8db519	-0.017298268
194	0x3cc79d73	0.02436707
195	0xbd1d0bab	-0.038341206
196	0xbd096305	-0.033541698
197	0xbe549cba	-0.20762911
198	0xbce5b689	-0.028041141
199	0x3d73d8e1	0.059533004
200	0xbf3c5ac5	-0.73576003
201	0x3ca7e4a4	0.020494767
202	0x3bb02729	0.005375762
203	0xbe0af3b2	-0.13569525
204	0x3d0cb50b	0.034352344
205	0x3d3dcdd2	0.046338864
206	0xbc9e12b1	-0.019296022
207	0xbcdf4206	-0.027253162
208	0x3db37adf	0.0876367
209	0x3d8085c0	0.06275511
210	0xbdb2ac59	-0.08724279
211	0xbd1bd6df	-0.038046714
212	0xbee1067a	-0.43950254
213	0x3c1ccf7d	0.009570953
214	0xbe438e06	-0.19097146
215	0x3c634604	0.0138716735
216	0x3d4dbb34	0.05022736
217	0xbe0757cd	-0.13217087
218	0xbdcd1525	-0.100137986
219	0x3c9f671e	0.01945835
220	0x3d67ad25	0.056561608
221	0x3d8c8181	0.068606384
222	0x3d9a789a	0.07542534
223	0xbcfe0c15	-0.03101162
224	0xbc2fe56e	-0.010735853
225	0x3d2074d1	0.039173905
226	0xbe560668	-0.20900881
227	0xbd50068e	-0.0507875
228	0xbcacf242	-0.021111611
229	0x3d638403	0.055545818
230	0x3d7ad2ea	0.0612363
231	0xbddf18fe	-0.10893439
232	0xbccde817	-0.025135083
233	0xbbae0bae	-0.005311451
234	0x3d0df0c0	0.034653425
235	0x3c9a3c9a	0.018827725
236	0x3ccc66c3	0.024951344
237	0xbce971ec	-0.028496705
238	0x3c6e83e2	0.0145578105
239	0x3da0ba84	0.07848075
240	0xbd71bfea	-0.059020914
241	0xbe53cf85	-0.20684631
242	0x3d972794	0.07380596
243	0xbcd5817c	-0.02606272
244	0xbf1bd5fd	-0.60873395
245	0xbdae7868	-0.085190594
246	0x3dde4ab9	0.10854096
247	0xbd853940	-0.0650506
248	0x3cd8710c	0.026421092
249	0xbe84f894	-0.259709
250	0xbbd61192	-0.0065328563
251	0x3cda60dc	0.026657514
252	0x3d09edd6	0.033674084
253	0x3a7c948e	0.00096351735
254	0xbc92282c	-0.017841421
255	0xbd79de49	-0.061003003

bias f4 [64]
0	0x3ec6ec34	0.38852084
1	0x3ed10ed9	0.4083164
2	0x3c455ad3	0.01204558
3	0x3ddcfc6c	0.10790333
4	0x3f1c8de4	0.6115401
5	0xbf3385a9	-0.70125824
6	0xbed9152b	-0.42398962
7	0xbdf3513f	-0.11880731
8	0x3f0273a0	0.5095768
9	0x3f5cb663	0.862158
10	0x3f1f997b	0.6234357
11	0x3f3d9916	0.74061716
12	0x3f14c000	0.5810547
13	0x3f06a69d	0.5259798
14	0x3f1a639f	0.6030826
15	0xbec7dee8	-0.3903725
16	0xc029d946	-2.6538863
17	0xbf08b0d5	-0.53394824
18	0x3f6e168d	0.9300316
19	0x3e5e2cf0	0.2169683
20	0x3f01c763	0.50694865
21	0xbe9bea2b	-0.30452093
22	0xbf49c63d	-0.7881811
23	0xbf60d2ab	-0.87821454
24	0x3f938bae	1.1527002
25	0x3f219ee8	0.63133097
26	0x3f6d29ba	0.92641795
27	0x3f2a1992	0.6644527
28	0x3d7c7374	0.061633542
29	0x3f55905a	0.8342339
30	0x3edf53e0	0.4361868
31	0x3f53d710	0.82750034
32	0xbe80f17a	-0.25184232
33	0xbe60d473	-0.21956043
34	0xbe012c04	-0.12614447
35	0x3defdc8b	0.11711987
36	0x3f41c2bd	0.7568777
37	0x3ec893c6	0.39175242
38	0x3e846f96	0.25866383
39	0x3f09dafb	0.5384976
40	0x3e79b86c	0.24386758
41	0x3f317aff	0.693283
42	0x3f4c6098	0.7983489
43	0x3ce5dd2e	0.028059568
44	0x3f3df77a	0.74205744
45	0xbf17f800	-0.5936279
46	0x3f46a640	0.7759743
47	0x3c97fa7e	0.018552061
48	0x3f380b72	0.71892464
49	0xbe6ff426	-0.23432979
50	0x3f269f19	0.65086514
51	0xbd912280	-0.070866585
52	0x3f71180f	0.94177336
53	0x3e890e2e	0.2676863
54	0xbe70a45d	-0.235002
55	0x3fa92b01	1.3216249
56	0xbbc1d9ae	-0.005915842
57	0x3f323bc4	0.69622445
58	0x3f7993f9	0.97491413
59	0x3f907fd2	1.1289008
60	0x3f3fadf1	0.7487479
61	0x3f358722	0.7090932
62	0x3ed5b028	0.4173596
63	0x3f8c2be4	1.0950894

weight f4 [1, 64]
0	0xbeb10e67	-0.345813
1	0x3e0d26f4	0.1378439
2	0xbe13d867	-0.1443802
3	0xbe1c673d	-0.15273757
4	0x3e51cba8	0.20487845
5	0xbe3199a4	-0.17343765
6	0xbe77cfd3	-0.24200372
7	0x3cbb3c46	0.022855889
8	0x3ddca709	0.10774047
9	0xbfc25ac1	-1.5183946
10	0x3cc8dc8a	0.024519224
11	0x3e01c152	0.12671402
12	0xbe7a812d	-0.24463339
13	0xbe963003	-0.29333505
14	0xbeaa3bd4	-0.3324877
15	0xbe2eb55c	-0.1706137
16	0xbec4c952	-0.38434845
17	0xbe57d56e	-0.2107751
18	0x3e012507	0.12611781
19	0xbe75f7aa	-0.24020258
20	0xbead91ac	-0.339002
21	0xbd87b4ab	-0.066262566
22	0xbe456f74	-0.19280797
23	0xbe5e33e6	-0.21699485
24	0xbfefd1d7	-1.8735913
25	0x3d892b78	0.06697744
26	0x3ddefbfe	0.108879074
27	0x3eada3db	0.33914074
28	0xbea6ce3c	-0.3257922
29	0x3dfefba1	0.12450338
30	0xbedf6ff9	-0.43640116
31	0x3de260e2	0.11053635
32	0xbdf1bb68	-0.11803323
33	0xbe420223	-0.18946128
34	0xbe182007	-0.14855967
35	0xbe685c84	-0.22691542
36	0x3d91724f	0.07101881
37	0x3e742df3	0.23845653
38	0x3e41c6c9	0.18923487
39	0x3e582e4d	0.21111412
40	0x3e0b60d2	0.13611153
41	0xbf6969e7	-0.9117722
42	0x3e539ff4	0.20666486
43	0x3ec3bf7f	0.38232037
44	0x3d978dba	0.07400079
45	0xbe1b427d	-0.15162082
46	0x3e9c4328	0.30519986
47	0x3e0fdb48	0.14048493
48	0x3e660f99	0.22466888
49	0xbe1444a2	-0.14479306
50	0x3d66b1f6	0.05632206
51	0xbe27a0b0	-0.16369891
52	0x3dea079d	0.11427233
53	0xbd9b68c7	-0.07588344
54	0xbd04820e	-0.032350592
55	0x3f0719ee	0.5277394
56	0x3eab05e6	0.33402938
57	0xbee5af70	-0.4486041
58	0x3dd0f853	0.10203614
59	0x3ea7f522	0.3280421
60	0x3d8d1722	0.06889178
61	0x3dbcf37e	0.0922613
62	0xbf823eb8	-1.017539
63	0x3e5062a7	0.20350133
