models/ic50_model.pt (torch, 63270 bytes, 5 tensors)

weight f4 [128, 49]
000000 ee 5b e5 bc 8e d1 3c be 47 4d 76 bf 78 08 80 c0
       -0.027997937 -0.18439314 -0.96211666 -4.001034
000010 27 de 15 be ce 3d c2 3e 2e c4 30 be 2a 22 10 be
       -0.14635526 0.37937778 -0.17262337 -0.14075533
000020 3a 15 1f 3e 14 36 d7 be 50 1f cc 3d a6 67 4d 3d
       0.15535441 -0.42033446 0.0996691 0.050147675
000030 15 02 ec 3d 66 e5 f2 bd ca 66 28 be ac 9b 31 3d
       0.115238346 -0.118601605 -0.16445461 0.04336135
000040 84 fc 12 be dc 28 ed bd 07 c8 81 3e b1 32 b7 bd
       -0.1435414 -0.11580059 0.2534792 -0.089452155
000050 62 a3 3e 3d 8c 17 53 3c f0 76 54 3e 27 e6 db 3c
       0.046542533 0.012884032 0.20748496 0.026843144
000060 9c 6b ff bd a1 f5 9b be fb 2e 50 be 72 83 50 3e
       -0.12471697 -0.30460837 -0.20330422 0.20362642
000070 fe e0 df be 2d c0 c1 3d 18 6d 91 3e a1 fd 1f 3d
       -0.43726343 0.09460483 0.28403544 0.03906024
000080 35 6a 00 be ff 85 bd 3b 55 48 2e be 84 86 85 bd
       -0.12540515 0.005783796 -0.1701978 -0.065197974
000090 58 01 25 3d 42 f8 60 3e aa 45 84 3e 4f c2 4b bd
       0.040284485 0.21969703 0.258344 -0.049745854
0000a0 0c 5b b8 bc d7 f7 ca 3d 03 c2 02 be 62 66 68 3d
       -0.022504352 0.09910553 -0.12769322 0.056738265
0000b0 32 31 b8 3d 23 7d b6 3d d9 18 f9 3d 1e c1 9e 3e
       0.08993758 0.08910587 0.121629424 0.31006712
0000c0 24 cf ab be f6 41 29 bc 74 f2 37 be 9a d1 66 bc
       -0.33556473 -0.010330668 -0.17963582 -0.014088059
0000d0 5b ba b5 bd 3c 4e 4d 3f db 9d 66 3f 48 2e 36 3f
       -0.08873435 0.801975 0.9008462 0.7116437
0000e0 19 2a 00 3f 96 37 0a 3f fb 61 09 3f d8 7d 21 3f
       0.50064236 0.5399107 0.5366513 0.6308265
0000f0 e1 43 30 3f 9f c6 20 3f 5e ab db 3e 44 ca 0a 3f
       0.68853575 0.6280307 0.4290418 0.5421488
000100 a9 ee 32 3f d2 ff 56 3f db ee a3 bc 93 fe af 3e
       0.69895416 0.839841 -0.020011356 0.34373912
000110 31 87 9e 3e a3 55 03 3f 09 dd df 3e 9c 0e bd 3e
       0.30962518 0.51302546 0.43723324 0.3692521
000120 eb 2c 1b 3f 1b 5b fc 3e e6 63 10 3f 86 35 d3 3e
       0.60615414 0.49288258 0.5640243 0.41251773
000130 2f ae 17 3f 20 ff bd 3e 5e 63 83 3e 13 81 94 bc
       0.5925016 0.37108707 0.2566175 -0.018127954
000140 74 11 02 3f b8 db 9a 3e 93 f2 3e 3f 8a 37 13 3f
       0.5080788 0.30245757 0.7458889 0.5750662
000150 98 43 f1 3e d8 a7 d5 3d 3c a6 1c 3f 8f 21 51 3e
       0.47121882 0.10432404 0.61191154 0.20422958
000160 6a 5c 88 bc 2e c9 d2 3e 95 fd 40 3f 0c 52 ab 3e
       -0.016645629 0.41169113 0.75386935 0.33461034
000170 1d aa a3 3e 62 f2 c9 3e 6d 6a 9f 3e b1 d9 0f 3f
       0.31965724 0.39442736 0.31135884 0.56191546
000180 3f 42 10 3f 87 82 fa 3e 77 d0 80 bc 13 c3 a7 bd
       0.56351084 0.4892771 -0.015724404 -0.08191504
000190 11 69 e3 3d 6e 2b 81 3c 8a d7 2a 3d 5c c9 ae bc
       0.11104024 0.01576778 0.04170946 -0.02133625
0001a0 6e ad 1b 3b 1c de 4c 3d 81 6e f1 bc a3 e0 d6 3d
       0.0023754495 0.050016508 -0.029471638 0.10492065
0001b0 6e a8 d0 bc 9b e5 0a be 01 e4 3b 3d 43 12 ee bd
       -0.025470939 -0.1356415 0.04587174 -0.11624577
0001c0 0c 2a f3 bd 4e cc e5 3d e5 c9 eb bc 80 de 92 bc
       -0.11873254 0.11220609 -0.028782794 -0.017928362
0001d0 25 0d 39 3d 5c ee 4b 3c 0e de cb 3d 1a 64 8a bd
       0.04517855 0.012446966 0.09954463 -0.06757374
0001e0 4e 15 0a 3d ee 7a 45 bc 6e 43 c0 bb de 57 9c bd
       0.033711724 -0.0120532345 -0.0058674132 -0.07633947
0001f0 ea 15 f0 bd 41 bd c2 3c 0b a7 0a be 1a 4c f2 bd
       -0.1172293 0.023771884 -0.13540284 -0.118309215
000200 21 4a 6d bd a1 52 bf 3d 6f b0 08 be 0c 97 cc 3d
       -0.057932023 0.09341932 -0.13348554 0.099897474
000210 13 07 09 3c 15 ea 97 3d e3 69 0c be 00 2e 18 3d
       0.008363503 0.074176945 -0.13712268 0.037153244
000220 8b 65 0b be 85 86 c7 bd 95 ad a2 bd 81 4f 75 bd
       -0.13612954 -0.097424544 -0.079432644 -0.059890274
000230 53 1a b7 bd da 05 f1 3d 7c 59 1a bd b7 60 36 bd
       -0.08940568 0.11768694 -0.037682995 -0.04452583
000240 b3 83 bd bd fe de 84 3d ee 81 21 3d 1d 15 54 bd
       -0.09253635 0.06487845 0.03943055 -0.051777948
000250 f6 4b 54 be b1 79 3a 3f 28 8e 91 3d a0 58 7b 3d
       -0.20732102 0.72841936 0.07107192 0.061363816
000260 f3 a6 f6 bc 03 e6 10 bd 0d 21 01 be 85 35 4b 3e
       -0.030108904 -0.035375606 -0.12610264 0.19844635
000270 56 f3 66 3d 63 de 18 bc 6f 37 14 3d 94 f6 32 3b
       0.056384407 -0.009330365 0.036185678 0.0027307617
000280 7f 85 1b 3e 2d 20 91 be 75 56 47 be 67 ec f0 bc
       0.15187643 -0.2834486 -0.19466574 -0.0294096
000290 d4 2b 42 be 63 8d f0 bd 7d 47 ce bd 63 58 af bd
       -0.18962032 -0.117457174 -0.10072229 -0.0856178
0002a0 9b 49 28 bd dd dd 99 bc 56 5b 19 3e a6 fa 21 be
       -0.04108582 -0.01878255 0.14976248 -0.15818271
0002b0 2d 6c 08 3e 80 8b 2d 3e 8f 16 84 3c 3a 8a 2f bd
       0.13322516 0.16947746 0.016124038 -0.042856432
0002c0 58 e5 cc bd 06 16 6f bd b4 49 02 bd 8b ec 93 bd
       -0.10004681 -0.058370613 -0.03180857 -0.07222851
0002d0 e9 10 03 3e 1d 3a 0d 3e d5 53 4b bc a2 03 29 3e
       0.1279942 0.137917 -0.012410124 0.16505292
0002e0 8d b0 01 bc ed 35 00 3e 5e 9a 49 3e 7a 75 65 be
       -0.007915628 0.12520571 0.19687793 -0.22408095
0002f0 6b d7 03 be 2b fb bb bd f3 98 1a be 14 09 c8 3c
       -0.12875144 -0.09178766 -0.15097408 0.024418391
000300 42 5d 2a 3e 9f 21 38 be 23 ea b6 3d fd 4a ee bd
       0.16637138 -0.17981575 0.08931377 -0.11635397
000310 81 5a 8e bb a5 0c 03 bd 87 65 25 bf 36 ae 0c 40
       -0.004344285 -0.03199448 -0.64608043 2.198133
000320 f1 2a 1e be 3d 42 49 bd cf e0 6a be cd 82 44 be
       -0.15446068 -0.049135435 -0.2293732 -0.19190522
000330 e1 e1 ce bd b9 b3 4e be 70 b3 57 be d7 79 47 3d
       -0.10101677 -0.20185746 -0.21064544 0.04870018
000340 52 07 22 3d 5a a0 be 3c ed 53 a8 bd 15 8c 9e 38
       0.039557762 0.023269821 -0.082191326 7.5601194e-05
000350 ab 3b e9 be 43 67 ad bb a9 7f ea bd 63 4a 95 bc
       -0.45553336 -0.005291851 -0.114501305 -0.018223947
000360 e1 07 52 be db 78 71 bc 7b 33 12 be 0d be be bd
       -0.20510818 -0.014738287 -0.1427745 -0.09313593
000370 61 67 94 bd f9 bc e4 3d c9 78 90 37 c6 3d b7 be
       -0.072462805 0.11168856 1.7222383e-05 -0.35789317
000380 e9 b2 3e be be 6a be 3d a7 59 ee bd 4f 96 9a bd
       -0.18622936 0.09297703 -0.116381936 -0.075482
000390 42 df 10 3e dc 91 48 bc 8e 99 83 3d f9 24 86 be
       0.14147666 -0.012241807 0.064257726 -0.26200083
0003a0 02 83 f4 3d 9f 97 68 be d1 36 71 3d 5e e9 9e bd
       0.1193905 -0.22714089 0.058890168 -0.07759355
0003b0 50 ab d0 bb 8f 28 f7 bd b3 bf f1 3d 93 bd 63 be
       -0.0063680783 -0.12068283 0.11804142 -0.22240286
0003c0 43 32 15 3e b7 d3 56 3e 1a 51 38 3b 0f 28 d2 bd
       0.14569955 0.209792 0.0028124512 -0.10261547
0003d0 b3 66 6c be 5a ad 04 ba f0 9c 98 3b 08 7d 3c 40
       -0.23086052 -0.0005061232 0.0046573803 2.9451313
0003e0 5a b1 0b 3f 7e c7 47 be 4d 72 06 bf 2a e3 f7 3d
       0.5456749 -0.19509694 -0.5251816 0.12103875
0003f0 4f f1 f3 bd 7e bc 2a be 0c 63 f6 bd c1 9d 80 be
       -0.1191126 -0.16673467 -0.120306104 -0.25120357

bias f4 [128]
000000 59 5b 43 3e d2 0f df 3f 5c 2e f9 3c 7f 72 9a bd
       0.19077815 1.7426703 0.030417614 -0.0754137
000010 31 e2 60 be 0d 9c ac be 15 e9 85 3f 9f 7c 40 3f
       -0.21961285 -0.33712807 1.0461756 0.75190157
000020 f9 9f 8d 3e bf 36 f7 be 6b eb 85 3f cf e7 6a 3e
       0.27661112 -0.48283955 1.0462469 0.2293999
000030 89 c3 bc 3f 8b 0b 98 3d 2a e9 db 3c 58 45 b5 bd
       1.4747173 0.07424077 0.02684458 -0.08851117
000040 ac 86 d6 3f 6e 16 0b 3f 18 95 a8 be 9a ba 69 be
       1.6759849 0.543311 -0.3292625 -0.22825089
000050 07 66 9a 3d bd d4 b7 3d f1 fb 6f 3f 01 8f 55 3f
       0.075389914 0.089761235 0.9374381 0.8342133
000060 37 5b da bd ff f9 12 3f 9a 7e af 3e bb 19 8d 3f
       -0.10661929 0.57412714 0.34276277 1.1023477
000070 cd c4 88 be 63 15 69 bf d9 50 94 be 22 ad 11 3e
       -0.26712647 -0.9104826 -0.28967932 0.14226201
000080 fd 1c 33 3d 6f 42 64 3f 53 92 97 bd d0 4e e3 3e
       0.043728817 0.8916387 -0.07400956 0.44396067
000090 9e 58 da 3e 00 c8 c6 3e 4e 30 87 be 98 ef ee 3d
       0.42645735 0.38824463 -0.2640404 0.11666793
0000a0 23 bf af be 30 ac 57 3f ef 06 65 3f 1e 0f df 3e
       -0.34325513 0.8424711 0.89463705 0.4356622
0000b0 c1 34 b4 bf 4c 3b 68 be 7a 45 a4 be fc 99 8d 3e
       -1.4078599 -0.2267887 -0.32084256 0.27656543
0000c0 27 a6 59 be f2 de 24 3f bc 54 13 be 92 de b0 3e
       -0.21254788 0.6440269 -0.14387792 0.34544808
0000d0 d3 dd e6 3e 08 e4 0f 40 c7 48 d0 3d 0a fc b0 bf
       0.45091113 2.248293 0.10170131 -1.3826916
0000e0 ff 3b 0a bd b0 5b 06 bd 0b 60 4c 3f 1d 26 50 3e
       -0.033748623 -0.032802284 0.7983405 0.20327039
0000f0 e8 29 09 be 8b 33 31 3d 64 11 51 3e e8 05 c8 be
       -0.13394892 0.043262046 0.2041679 -0.39067006
000100 6c 4c 86 3e 94 c3 a6 be 1c 49 81 3e 13 81 55 bd
       0.2623018 -0.3257109 0.2525109 -0.052125048
000110 64 a9 fb bc 85 23 c7 bd bc 8c a9 3d 02 24 c0 3d
       -0.03072042 -0.09723572 0.08278796 0.09381868
000120 25 fb 40 be b4 81 c2 3d 8d 43 cc 3d 57 f3 61 bd
       -0.18845804 0.09497395 0.09973822 -0.055163708
000130 e4 b5 0e bd 0c a8 25 3e 5a 35 1c be a6 0a 02 be
       -0.034841433 0.16177386 -0.15254727 -0.12699375
000140 99 13 0b 3f 9e 4c 1b bd 8a 40 67 3e 4d 5e 69 3d
       0.5432678 -0.037914865 0.22583213 0.056974698
000150 55 df e7 be 60 a6 84 3f 1b 3f 99 be 55 d6 2e 3f
       -0.45287576 1.0363274 -0.29930958 0.68295795
000160 fa 06 7a 3f 9e c7 88 3f 07 ee 9d 3f 05 9b 7d be
       0.97666895 1.0685918 1.2338265 -0.24766167
000170 24 7a b4 3e 2d 98 da 3f 86 8a 9a be ca e0 b0 3d
       0.35249436 1.707769 -0.3018381 0.08636625
000180 f0 70 80 3f 36 1c 9f 3e 16 8d 38 3e 9e ae 38 3e
       1.0034466 0.3107621 0.1802257 0.18035361
000190 e5 c8 1e be 09 7f 35 be f9 bf a1 bf 38 be 05 be
       -0.15506323 -0.17724241 -1.263671 -0.13060844
0001a0 b5 13 4c bc 25 7f b0 bd 0d 17 01 3f 82 32 96 3b
       -0.01245587 -0.08618001 0.504258 0.0045836577
0001b0 aa 84 61 be 3d 14 d1 ba 51 b0 67 3f f7 24 a0 3c
       -0.22023264 -0.0015951466 0.9050341 0.019548876
0001c0 a4 3c 39 3e c9 48 06 be 26 cd b8 be 38 ca 86 3d
       0.18089539 -0.13113703 -0.36094016 0.06581539
0001d0 dc 67 06 3e 6c c1 04 40 db 60 1f 3f d1 75 3f 3e
       0.13125557 2.0743055 0.62257165 0.18697287
0001e0 0b c0 19 40 48 41 af bc ba 5c ad be bd c3 2d 3e
       2.4023464 -0.021393433 -0.33859807 0.169692
0001f0 7f 7c c1 be 1e 20 7d bd 90 f9 a8 bd 9f df 06 be
       -0.37790295 -0.061798207 -0.08250725 -0.13171242

weight f4 [64, 128]
000000 c1 2c d6 bd 8c c3 db bd c6 3d 4e 3d c0 3c 2e bd
       -0.10457755 -0.10730657 0.05035188 -0.042538404
000010 83 a2 a0 be eb 5f 9a bc 9f 36 c8 bd 68 c7 64 be
       -0.31373987 -0.018844565 -0.09776043 -0.22341692
000020 f4 c9 bf 3c 5d 70 af bf db 84 18 bf 52 6c 8e bc
       0.023411728 -1.3706166 -0.5957772 -0.017385636
000030 b4 5f f9 bd 4e df 95 bd 97 e4 b0 3d c2 91 51 3c
       -0.12176457 -0.073179826 0.0863735 0.012791099
000040 fe 42 30 be 51 4f 53 bc a6 57 27 3d 35 b5 7e bd
       -0.17213055 -0.0128973285 0.040855072 -0.06218453
000050 5a 9b 87 bd 76 5b b8 bc 8a 6f b9 3c 8f 33 55 3d
       -0.06621428 -0.02250455 0.022636194 0.052051123
000060 37 d6 60 3d b9 09 c0 bd c0 51 c9 bd 5a bf 02 bf
       0.05489179 -0.093768544 -0.09830046 -0.5107323
000070 71 45 6c 3c f8 2a d7 3d 51 87 03 be bb 18 46 3d
       0.014420853 0.105062425 -0.12844588 0.04836343
000080 db 88 c2 bd 8d d7 7a be 92 05 f4 3c 22 8c e6 bd
       -0.09498759 -0.24496289 0.029787812 -0.11257197
000090 a2 78 a7 bd cb 63 98 3d 78 ee e8 3d 58 cd 89 3a
       -0.08177306 0.07440909 0.11373609 0.0010513468
0000a0 fa ed e0 3d 16 cc 91 3d ff 8d 4c bb 29 23 e5 bd
       0.109828904 0.071190044 -0.0031212566 -0.11188347
0000b0 7b ad 6b 3d 59 87 f8 be 64 4e 83 bf 25 3f 84 3d
       0.05753849 -0.48540762 -1.0258298 0.06457356
0000c0 b0 33 16 bf f6 e5 24 3d 5d 58 0b bd 1c 59 db bd
       -0.5867262 0.04025837 -0.034019817 -0.10710356
0000d0 52 54 95 bd 1b 2a ce be 16 49 f2 bd e0 a1 5e 3c
       -0.072914734 -0.402665 -0.11830346 0.013588399
0000e0 b8 f5 c9 bc 8c 45 49 3c 55 34 fb bd 8d b8 c7 bd
       -0.0246533 0.012284648 -0.12265841 -0.09751997
0000f0 41 f8 ae bd 48 c0 9b bc 8b c2 83 bd a9 a0 08 bd
       -0.085434444 -0.019012585 -0.064335905 -0.033356342
000100 ae 22 6a bd 8e f1 f4 be 19 de 9b bd ca eb d0 bc
       -0.05716198 -0.47840542 -0.07610721 -0.025503058
000110 8b 05 ab 3c d0 94 09 bd be ae 8a bd db 43 22 bd
       0.020876667 -0.033589184 -0.06771611 -0.039615493
000120 46 86 84 be 70 ed 4a be f0 88 76 3d 80 b3 6d bd
       -0.25883693 -0.19817138 0.060189188 -0.058032513
000130 2f 44 81 3c a7 9c 09 3d 16 06 f1 bd 42 14 0a bd
       0.015779583 0.03359666 -0.11768739 -0.033710726
000140 c2 2b 79 3d 22 bf b7 bd 96 48 01 3d ac 72 b4 bd
       0.060832746 -0.089720026 0.031563364 -0.088109344
000150 43 bb bd be 4d 4a 0d bd 90 e4 55 3d f1 79 aa bd
       -0.37056932 -0.034494687 0.052219927 -0.0832404
000160 95 b9 ed 3b 6f fc 09 bd 4c 19 fa bb a1 a7 83 3b
       0.007254789 -0.033688005 -0.00763241 0.0040177857
000170 b1 93 5c bd 4b 15 e4 be db 91 fc be a6 d6 ab 3c
       -0.053851787 -0.44547495 -0.4933003 0.020976376
000180 f5 41 ca bb 10 b9 55 be 28 7f ae bc e3 07 3d be
       -0.0061724135 -0.20871377 -0.021300867 -0.1846004
000190 30 c4 00 3c 18 e5 96 be 5d 48 8e 3d 4b 20 f9 3a
       0.007859275 -0.2947166 0.06947396 0.0019006816
0001a0 ff bd 95 bd 49 58 7f bd 7c 9d 1c 3c 0e 17 a4 3c
       -0.073116295 -0.062340055 0.009559032 0.020030525
0001b0 c2 42 88 bd a5 6b 92 bc 04 71 16 bc 99 43 2b 3c
       -0.06653358 -0.017873595 -0.009182218 0.010453128
0001c0 7c 42 17 bd b0 30 8d bd da 63 34 3b 3d 9a 58 bc
       -0.03692864 -0.06894052 0.0027525336 -0.013220367
0001d0 ef 73 c1 bc 5c 2a 90 bf b4 f5 37 3d c9 16 ab bc
       -0.023614852 -1.1262927 0.044912055 -0.020884888
0001e0 f9 51 a8 bd a5 20 0d bc 28 92 c9 be a8 05 80 bc
       -0.0821876 -0.00861374 -0.3936932 -0.015627697
0001f0 b0 ec 48 bf 39 85 d9 bd a1 a2 a1 3d 52 f7 56 3b
       -0.78486156 -0.10621113 0.07892347 0.0032801223
000200 13 9b 0d bd 90 aa 77 be 79 ea 1e bd d4 eb 88 3d
       -0.03457172 -0.24186158 -0.03879783 0.06685606
000210 c5 bd 21 be b5 8c 18 3d 6f 33 0a be e9 b8 3f 3d
       -0.15795048 0.037243564 -0.13496183 0.046807203
000220 d8 9e a7 bc 21 8c 86 bf 86 b9 f8 3e bb f1 a0 3d
       -0.020461485 -1.0511514 0.48579043 0.078586064
000230 46 02 e2 bd e4 ab 12 bd 07 91 a9 bc 6d 58 80 3b
       -0.1103559 -0.03580846 -0.020699037 0.003916791
000240 7a cb d4 bd de d9 81 bb c4 f9 c8 3d 1c b6 87 bd
       -0.103903726 -0.0039627394 0.09813264 -0.066265315
000250 59 02 6f 3d 53 e7 5b 3d 7a 89 d8 bd cd ab e8 bb
       0.05835185 0.053687405 -0.105730966 -0.0071005584
000260 ea e2 37 bd 9f a6 a7 bd e1 af a7 3d d5 f7 87 3e
       -0.044894136 -0.08186077 0.08187843 0.26556268
000270 c1 8b 58 bd 05 7c 04 3d 66 76 95 bd 07 17 88 3d
       -0.052867655 0.032344837 -0.07297973 0.06645017
000280 00 52 4d 3d da c7 24 be ad f8 75 bd a4 51 37 bd
       0.05012703 -0.16091862 -0.06005161 -0.044755593
000290 6f 1e 37 be 87 69 4e 3d 82 b0 df bc 3f 79 36 bd
       -0.17882703 0.050393607 -0.027305845 -0.044549223
0002a0 4e 38 57 3d 07 26 a4 3d 31 6c 5c bc cd 16 0f 3c
       0.05254393 0.08015066 -0.013453529 0.0087334635
0002b0 69 27 22 3d a7 56 df be 4f 2b 2b bf df 09 f7 bc
       0.039588366 -0.43620798 -0.6686296 -0.030156074
0002c0 a0 4d c9 be 7e da 43 3d de 31 cb 39 ed 08 c2 bd
       -0.39317036 0.047815792 0.0003875633 -0.09474359
0002d0 07 8b 74 bd d4 82 c7 3e f9 7b 28 3a 7c 0d 13 3e
       -0.0597029 0.38967 0.0006427165 0.14360613
0002e0 6b e7 ed bd f8 e1 a7 3d 10 8b 42 bc 7b 92 9d 3e
       -0.11616405 0.08197397 -0.011873975 0.30775818
0002f0 67 ac 39 3d 3c dc 45 3e 92 74 3e b9 94 21 77 3d
       0.04533043 0.19322294 -0.00018163238 0.060334757
000300 e2 42 d1 3b f3 21 9f be 03 85 3a bd 88 cf a8 bd
       0.006386147 -0.3108059 -0.045537006 -0.082427084
000310 91 ea 67 bd 5c 59 0d 3d e6 0f f9 3d 73 b7 8a 3e
       -0.056620184 0.034509048 0.121612355 0.27093086
000320 53 c2 9a be b0 97 10 3e e1 5d d3 3c 17 56 d5 3b
       -0.30226383 0.14120364 0.0258016 0.006510507
000330 22 b1 80 bd 09 e6 2c bd 12 6c 80 bd 17 d6 e8 3c
       -0.062837854 -0.042211566 -0.06270613 0.028422398
000340 bb e9 f2 3d 29 35 38 3d 22 e5 fc 3d 6b 9d 04 3e
       0.11860987 0.044972572 0.12348391 0.12950675
000350 eb 8a b5 bd e7 18 f3 bd 1a 67 e2 3d dd 8c aa bc
       -0.08864387 -0.11869984 0.11054821 -0.020819122
000360 e1 c2 4e bd fa d2 b7 3d 42 d0 f5 3c ea e5 22 3e
       -0.05047882 0.089757875 0.030006532 0.15908018
000370 1a 03 e2 3c 48 66 85 3e 3f bb 90 be 4c db 0a be
       0.02758937 0.26054597 -0.28267857 -0.13560218
000380 b5 4d 36 3d d4 6a eb 3d 9e aa be bc bd bd a2 3d
       0.0445077 0.11494985 -0.023274716 0.07946346
000390 e6 34 5f 3c 73 8d 01 be ef 14 34 3d 0a 86 a9 bd
       0.013623452 -0.12651615 0.043965276 -0.08277519
0003a0 9f f6 31 bd 8d 7b 62 3d 66 bb be b9 13 64 f5 bc
       -0.043448087 0.05529361 -0.00036379247 -0.029954946
0003b0 c1 a4 92 bd 19 2d 5f 3d f7 ad 6d 3c a1 da b1 3c
       -0.071603306 0.054486368 0.0145068085 0.021710696
0003c0 6f 86 4c bd f3 be 94 3c 5f 1b 05 3c 82 4d c9 3d
       -0.049932893 0.018157458 0.008124202 0.098292366
0003d0 9c f3 a1 bc bb 3c 02 3f 9a e4 83 bc bd fb 9e 3d
       -0.019769482 0.5087392 -0.016100217 0.07762859
0003e0 4c 41 61 3d e9 1d 9f bd de 35 4e be ee d9 ac bc
       0.054993913 -0.07769377 -0.20137736 -0.02110001
0003f0 91 8e 39 bf f9 a4 10 3d df 57 7a bd 3c 5e 7a 3c
       -0.72483164 0.03531358 -0.061118957 0.015281256

bias f4 [64]
000000 cd b2 60 3f e9 8e 81 3e 96 43 13 3f c4 13 ed 3d
       0.8777283 0.25304344 0.57525 0.115760356
000010 4f 17 7a 3f 03 55 fe 3e 64 53 25 be e7 2c 6f 3c
       0.97691816 0.49674234 -0.16145092 0.014598108
000020 ad e6 f1 3e f8 46 2b 3e 63 a5 51 3e 9c b9 4b 3f
       0.47246304 0.16726291 0.20473246 0.7958009
000030 81 ef b4 3d f1 f4 d4 3e 00 bd d4 3e 46 f4 a7 3f
       0.08834744 0.41593125 0.41550446 1.3121421
000040 8b 37 fa be aa 92 33 3f e5 c9 8e be 70 6f 6a 3e
       -0.488705 0.70145667 -0.27888408 0.22894073
000050 2c 78 9e 3f fa 2e 0e 3f b7 d1 ce 3d c4 30 6b 3f
       1.2380424 0.5554043 0.10098594 0.91871285
000060 9e b1 ed 3e d2 0a 18 3f df 11 8e 3e 1d 43 15 3f
       0.46424574 0.5939151 0.2774801 0.5830553
000070 23 cc 32 3f 6f 59 36 3c ac 74 73 bd aa 0f 33 3f
       0.6984274 0.011129721 -0.05943744 0.69945776
000080 82 21 99 3e a8 1d 7b 3f 16 8c 21 3f 73 0d 7d 3f
       0.29908377 0.98092127 0.6310438 0.98848647
000090 c5 29 56 3e c0 c7 03 be 6e 5c c1 be f4 e7 8f 3e
       0.20914371 -0.12869167 -0.3776583 0.28106654
0000a0 88 8b 81 be 2d a2 38 3f b2 d9 e2 3e 40 e8 94 3f
       -0.25301766 0.7212246 0.44306713 1.1633377
0000b0 99 66 66 3f 50 ab 43 3e 4c 1a f7 bc 7c 5c 0e 3f
       0.900003 0.1910832 -0.030163907 0.5560987
0000c0 d0 f1 3a 3f fd 96 c1 3f ec 1c cd 3e 67 2c 65 3f
       0.73025227 1.5124203 0.40061128 0.8952088
0000d0 e7 89 1d 3f 30 65 aa 3f 70 cf fc 3d a6 cf 2a 3f
       0.6153855 1.331213 0.12344253 0.66723096
0000e0 77 8a 23 3f d3 f7 3b 3e 58 e2 12 3f 36 a0 68 3f
       0.63883156 0.18356256 0.57376623 0.9086946
0000f0 cd 16 88 bd c0 1f 29 bf 98 d5 a0 3f f9 14 a8 3d
       -0.06644974 -0.6606407 1.2565184 0.08207125

weight f4 [1, 64]
000000 fa 22 2d 3e 4e 1b 9a 3d c4 47 71 be a6 18 23 3e
       0.16907874 0.07524739 -0.23562533 0.15927371
000010 68 fe a6 3d 9b 99 d6 be c4 7d b8 bd 4f 39 3b be
       0.08153993 -0.41914067 -0.09008363 -0.1828358
000020 a1 5e cb 3d 09 d7 c4 3d 64 a9 1a 3e a1 08 2f 3d
       0.099301584 0.09611327 0.1510368 0.04273284
000030 6d 2b 0c 3e 9c 45 be 3d 0c 39 f3 3d ae 00 54 3e
       0.1368844 0.09290621 0.11876115 0.20703384
000040 b7 83 a5 be 88 4f 07 bf a9 56 fa bd e0 ea 9b be
       -0.32327053 -0.5285573 -0.1222356 -0.30452633
000050 b4 8d 6c 3e 8b d6 c9 be 6e e4 fe 3d d4 03 f4 3d
       0.2310093 -0.39421496 0.12445913 0.11914793
000060 4f 5d b5 be c0 ad a2 be 7d ff b0 3d ad 5e 06 bf
       -0.3542275 -0.31773186 0.086424805 -0.52488214
000070 df d3 53 bf f8 b3 e3 3d 6f 34 28 3e 0b d4 e2 be
       -0.82745165 0.11118311 0.16426252 -0.443024
000080 0f 12 b8 3d 6c 2c be be ea a2 e4 3d 73 50 0b 3e
       0.089878194 -0.37143266 0.11163886 0.13604908
000090 ae e1 d4 3d 21 46 c2 3e 16 72 1d be 95 d7 14 3e
       0.103946075 0.3794413 -0.15375552 0.14535363
0000a0 68 df d8 bd cf aa fb 3c 4a 51 34 3e a9 94 59 3e
       -0.10589486 0.030721096 0.17609134 0.21248116
0000b0 c2 32 09 3d fd c6 0a 3e 54 8e c5 bd 53 9e c6 3d
       0.033495672 0.1355247 -0.096462876 0.09698167
0000c0 f1 d7 8e 3d 67 13 70 3e 01 67 0d bf 52 79 58 3e
       0.06974781 0.23444901 -0.55235296 0.2114003
0000d0 69 60 03 bf 55 e1 35 3e 3a a5 0f 3e 8a 29 76 3d
       -0.51318985 0.17761739 0.14027873 0.06009821
0000e0 7f 7f ef 3d 41 a8 9d 3d ad 2b 0e bf ee fb f6 3d
       0.1169424 0.076981075 -0.55535394 0.120597705
0000f0 26 0f 51 be f4 f4 e6 bd 63 6f 06 3e 24 64 63 bf
       -0.20415935 -0.1127719 0.13128428 -0.8882468
